shape of x_train: (50000, 32, 32, 3)
shape of y_train: (50000, 1)
shape of x_test: (10000, 32, 32, 3)
shape of y_test: (10000, 1)
number of classes: 10
Shape of y_train_vec: (50000, 10)
Shape of y_test_vec: (10000, 10)
[6]
[0 0 0 0 0 0 1 0 0 0]
Shape of x_tr: (40000, 32, 32, 3)
Shape of y_tr: (40000, 10)
Shape of x_val: (10000, 32, 32, 3)
Shape of y_val: (10000, 10)
_________________________________________________________________
Layer (type)                 Output Shape              Param #   
=================================================================
conv2d_1 (Conv2D)            (None, 32, 32, 32)        896       
_________________________________________________________________
batch_normalization_1 (Batch (None, 32, 32, 32)        128       
_________________________________________________________________
activation_1 (Activation)    (None, 32, 32, 32)        0         
_________________________________________________________________
max_pooling2d_1 (MaxPooling2 (None, 16, 16, 32)        0         
_________________________________________________________________
conv2d_2 (Conv2D)            (None, 16, 16, 64)        18496     
_________________________________________________________________
batch_normalization_2 (Batch (None, 16, 16, 64)        256       
_________________________________________________________________
activation_2 (Activation)    (None, 16, 16, 64)        0         
_________________________________________________________________
max_pooling2d_2 (MaxPooling2 (None, 8, 8, 64)          0         
_________________________________________________________________
conv2d_3 (Conv2D)            (None, 8, 8, 128)         73856     
_________________________________________________________________
batch_normalization_3 (Batch (None, 8, 8, 128)         512       
_________________________________________________________________
activation_3 (Activation)    (None, 8, 8, 128)         0         
_________________________________________________________________
max_pooling2d_3 (MaxPooling2 (None, 4, 4, 128)         0         
_________________________________________________________________
conv2d_4 (Conv2D)            (None, 4, 4, 256)         295168    
_________________________________________________________________
batch_normalization_4 (Batch (None, 4, 4, 256)         1024      
_________________________________________________________________
activation_4 (Activation)    (None, 4, 4, 256)         0         
_________________________________________________________________
max_pooling2d_4 (MaxPooling2 (None, 2, 2, 256)         0         
_________________________________________________________________
flatten_1 (Flatten)          (None, 1024)              0         
_________________________________________________________________
dropout_1 (Dropout)          (None, 1024)              0         
_________________________________________________________________
dense_1 (Dense)              (None, 128)               131200    
_________________________________________________________________
batch_normalization_5 (Batch (None, 128)               512       
_________________________________________________________________
activation_5 (Activation)    (None, 128)               0         
_________________________________________________________________
dense_2 (Dense)              (None, 10)                1290      
=================================================================
Total params: 523,338
Trainable params: 522,122
Non-trainable params: 1,216
_________________________________________________________________
Epoch 1/10

   32/50000 [..............................] - ETA: 29:53 - loss: 2.7133 - acc: 0.1250
   64/50000 [..............................] - ETA: 16:03 - loss: 2.6973 - acc: 0.1875
…
